vqvae_10e.pth (torch, 46459 bytes, 30 tensors)

codebook.weight f4 [64, 16]
-1.4420414 0.7696512 -0.73398685 -1.3799992 0.5539295 -0.427868 0.44377068 -1.4918518
-0.43928474 -0.28206658 1.3286945 -1.5899351 -0.7799405 -0.55796576 -1.4036943 -0.41657373
-0.19080137 0.019086795 0.34071866 -0.26875788 -0.6330838 -1.2630231 0.16181752 -0.5187985
-0.06021767 -0.056931343 0.028294709 0.34301367 0.24453804 -0.6172045 -0.31519765 -0.14714795
0.67082155 0.34543607 -0.4351107 -1.870135 -0.24208513 -2.0609536 1.3730451 -0.33907288
0.04114934 -1.1764133 0.1122519 0.92105013 0.18549585 0.1904825 -0.8271535 -1.0825561
0.37838787 -0.30073884 -0.6787864 -1.0307322 1.4461099 1.2428936 0.6425742 -1.6544521
0.3300408 -0.93241394 0.70947826 -0.321825 -0.37900382 -0.101607926 -0.39997706 0.89950866
-0.8823139 -0.077426285 0.57934874 0.028342703 -0.30784732 -1.1644794 -1.4383956 0.974087
-0.9203743 -1.2642934 0.8558025 0.8850833 -1.7506728 -0.09546249 -0.45264876 -2.2383196
-0.9810666 -0.64347076 -0.35973465 -0.9675166 0.41838497 0.73678434 0.48918134 0.84652007
-1.2827212 0.30243024 -1.0119672 0.064558916 1.4368155 1.7063487 -0.9890363 -0.9131889
1.572434 -0.6407407 0.885385 -1.0896074 -1.0190942 0.48415968 0.07554676 0.9111675
1.6621882 0.33316883 0.51970387 -0.10051231 -0.51385754 0.3845073 0.5025244 0.5039284
0.1563463 -1.3080467 2.316686 1.1554357 0.8986503 1.072766 -0.02336039 -0.6046566
1.3905424 -0.8338903 1.5348397 0.4668237 0.3253795 0.6799246 -0.5333574 0.5224238
0.224577 0.21395607 -0.093246125 -0.4287626 0.35874912 -0.8002533 0.6014493 0.16978131
0.09115537 -0.21582599 0.03866026 0.5931197 -0.26938158 0.67386514 -0.49996468 -0.39838496
-1.8290328 -0.04245161 1.124355 0.8431059 1.4076958 1.7043884 -1.2661455 -1.6251334
-0.96545464 1.728548 -0.33190688 -1.1423914 -1.0847652 0.43511796 1.5836557 0.3116895
-0.47447616 -0.86501557 -1.7850431 0.34971628 1.868935 0.33761972 0.97299844 -0.02096696
0.7814773 2.9036071 0.5462495 0.2998135 1.431742 0.7065892 -1.1485476 -1.3410814
-0.8464819 1.0364707 0.57046914 -0.2499652 1.930102 0.5538804 -0.20042181 -0.71806437
-0.4124749 0.62756866 0.3332058 -0.70033544 -1.319233 2.1090934 1.090597 -0.47726882
1.2321923 0.17120852 1.5275801 0.050826747 -0.028838726 0.11486011 0.027613845 -1.3037331
-0.018660786 -0.2843477 -0.019747945 -2.6627293 -0.04923615 1.5385536 -3.225226 0.31722718
-0.48439696 0.9498596 0.46973872 -1.6991094 0.34153378 -0.9910224 0.98224336 -1.0670019
-0.07157166 -0.7518037 0.7140692 -0.38385183 -0.02547903 0.37547985 0.6836586 -0.7792793
1.3093088 0.22905481 0.7805339 -0.5243093 -0.9173915 -0.38241294 -1.74697 -0.3866577
-0.3735114 0.7868911 -0.07292273 -2.169874 -1.4868156 -0.12481905 -1.6691651 -0.41150773
-0.39025292 -0.37830248 1.3158358 -1.8431399 0.6138032 -1.7698545 -1.1155089 -0.6261623
-0.7895639 -0.048872378 0.24641421 -1.1164707 0.46980697 0.21469155 0.67671704 1.292032
00000000: d094 b8bf dc07 453f 90e6 3bbf d0a3 b0bf
00000010: 53ce 0d3f 8411 dbbe e935 e33e 00f5 bebf
00000020: eee9 e0be 086b 90be a912 aa3f fe82 cbbf
00000030: 2eaa 47bf d8d6 0ebf 41ac b3bf 2749 d5be
00000040: 6f61 43be e95b 9c3c ad72 ae3e a29a 89be
00000050: c811 22bf beaa a1bf 7eb3 253e facf 04bf
00000060: cea6 76bd d730 69bd 4eca e73c 7d9f af3e
00000070: 2e68 7a3e 1d01 1ebf 9661 a1be f4ad 16be
00000080: f6ba 2b3f ffdc b03e d4c6 debe 9560 efbf
00000090: 2ae5 77be aae6 03c0 f1bf af3f f69a adbe
000000a0: 368c 283d b694 96bf 53e4 e53d f1c9 6b3f
000000b0: a0f2 3d3e d80d 433e 55c0 53bf 3391 8abf
000000c0: 0ebc c13e 71fa 99be f2c4 2dbf 08ef 83bf
000000d0: 211a b93f 2317 9f3f be7f 243f 16c5 d3bf
000000e0: 1cfb a83e aeb2 6ebf 5ea0 353f 3fc6 a4be
000000f0: ca0c c2be d117 d0bd cbc9 ccbe 3346 663f
00000100: 53df 61bf ac91 9ebd 3350 143f f52e e83c
00000110: 2a9e 9dbe a90d 95bf 591d b8bf c45d 793f
00000120: a69d 6bbf 5ed4 a1bf df15 5b3f d294 623f
00000130: 0c16 e0bf d781 c3bd 94c1 e7be a140 0fc0
00000140: 2e27 7bbf 80ba 24bf 242f b8be 2baf 77bf
00000150: 8e36 d63e e69d 3c3f fa75 fa3e 8ab5 583f
00000160: 3530 a4bf 23d8 9a3e 2488 81bf 7737 843d
00000170: 92e9 b73f a269 da3f 7c31 7dbf bfc6 69bf
00000180: 8445 c93f 9507 24bf 97a8 623f 4178 8bbf
00000190: ae71 82bf c7e3 f73e 42b8 9a3d 4642 693f
000001a0: 95c2 d43f 1b95 aa3e 500b 053f 66d9 cdbd
000001b0: 2b8c 03bf 24de c43e 70a5 003f 7401 013f
000001c0: 3f19 203e 136e a7bf 9544 1440 51e5 933f
000001d0: f20d 663f 6550 893f 4a5e bfbc c6ca 1abf
000001e0: 4bfd b13f d679 55bf a175 c43f 8403 ef3e
000001f0: 2498 a63e 8a0f 2e3f 1c8a 08bf 91bd 053f
00000200: 83f7 653e 4d17 5b3e d3f7 bebd c686 dbbe
00000210: f7ad b73e 66dd 4cbf 95f8 193f 27db 2d3e
00000220: abaf ba3d 7d01 5dbe 395a 1e3d b1d6 173f
00000230: 62ec 89be 6d82 2c3f 5ffb ffbe 1df9 cbbe
00000240: bf1d eabf bde1 2dbd ddea 8f3f cad5 573f
00000250: 602f b43f 6629 da3f 0e11 a2bf 5f04 d0bf
00000260: 0928 77bf 1041 dd3f b3ef a9be e239 92bf
00000270: 96d9 8abf c8c7 de3e 3bb5 ca3f c495 9f3e
00000280: 8aee f2be a971 5dbf 4b7c e4bf 030e b33e
00000290: 4339 ef3f 7edc ac3e 6d16 793f e7c2 abbc
000002a0: e50e 483f b3d4 3940 02d7 0b3f 2881 993e
000002b0: 5243 b73f 08e3 343f 9c03 93bf 8ea8 abbf
000002c0: 0ab3 58bf 12ab 843f 440a 123f e1f6 7fbe
000002d0: 950d f73f 1bcb 0d3f 603b 4dbe 11d3 37bf
000002e0: e92f d3be 57a8 203f f399 aa3e 2f49 33bf
000002f0: a0dc a8bf 63fb 0640 af98 8b3f 945c f4be
00000300: 7ab8 9d3f 4951 2f3e bf87 c33f b52f 503d
00000310: 313f ecbc c73b eb3d 6e36 e23c bae0 a6bf
00000320: 81de 98bc 0696 91be 71c6 a1bc 286a 2ac0
00000330: d8ab 49bd 53ef c43f 1a6a 4ec0 9a6b a23e
00000340: e102 f8be 002a 733f 9881 f03e 6b7c d9bf
00000350: 84dd ae3e a5b3 7dbf 4d74 7b3f 8593 88bf
00000360: 2a94 92bd 3576 40bf 3dcd 363f 3a88 c4be
00000370: 66b9 d0bc e53e c03e 4004 2f3f d97e 47bf
00000380: 6e97 a73f 588d 6a3e 12d1 473f 2239 06bf
00000390: 2bda 6abf a1cb c3be b79c dfbf 00f8 c5be
000003a0: e33c bfbe b271 493f 8358 95bd 37df 0ac0
000003b0: f94f bebf 21a1 ffbd 34a7 d5bf 24b1 d2be
000003c0: 3bcf c7be ddb0 c1be 4f6d a83f 02ec ebbf
000003d0: 3522 1d3f 988a e2bf ffc8 8ebf 2c4c 20bf
000003e0: dc20 4abf 672e 48bd 0254 7c3e 83e8 8ebf
000003f0: 8a8a f03e 1ad8 5b3e 543d 2d3f 4e61 a53f

encoder.0.weight f4 [16, 1, 3, 3]
-0.055244077 -0.055533186 0.2013487 -0.14535718 -0.4920108 0.12782939 -0.17947985 -0.3237711
0.016177231 0.2431527 -0.2152626 0.08884187 0.1965078 0.09065852 0.16863818 0.36590675
-0.16595608 0.048498478 0.22308542 -0.0123187555 0.15641293 0.14205839 -0.12696037 -0.0636733
-0.06717038 -0.32997537 -0.10173445 0.18564816 0.05138997 -0.58329123 0.014085512 -0.124474734
-0.28253126 -0.18093379 -0.0958261 -0.18959987 0.07672139 -0.014760258 -0.237537 0.018676396
-0.15651721 -0.2852809 0.27693942 0.10612765 -0.10405254 -0.1151996 -0.21540712 -0.1719561
-0.24135773 0.07788643 -0.28637978 -0.18669994 -0.2920607 -0.11223916 -0.04632272 -0.006357769
-0.11766317 0.13772003 0.40664628 0.2246499 -0.29001844 0.2497465 0.023460215 -0.046764307
-0.048478488 0.07039838 -0.28637758 -0.003935694 0.33087116 -0.16146973 -0.17168003 0.36139706
0.2992575 0.6737347 0.14914553 -0.081353806 0.059560724 -0.038554545 -0.017728696 -0.03119249
-0.13920532 -0.012972779 -0.025283726 0.079770006 -0.0026602019 0.30977362 -0.08605052 0.23940954
0.29376817 0.09216727 0.042191092 0.18134098 -0.035789877 -0.27621412 -0.22769631 -0.09576741
-0.268196 -0.22349538 -0.2227678 -0.24030031 -0.14842525 0.07735553 0.018993953 -0.04411114
0.12499583 0.06098635 0.3092988 0.36671954 -0.019313449 -0.17030692 0.3088959 0.13097546
-0.42237687 0.017458541 -0.06002011 -0.28329742 0.2577375 0.09513683 0.07708937 0.12659308
-0.1759359 0.08423325 0.7387255 0.06339159 0.06976325 0.1377372 -0.26724473 -0.08699797
0.17200154 0.0640512 0.14662108 0.26175672 -0.18105239 -0.2701359 -0.10168875 -0.043650102
-0.12554847 -0.20963375 -0.19050981 -0.21950735 -0.2851823 0.16797327 0.3367119 0.1950151
00000000: 9d47 62bd c476 63bd 5b2e 4e3e 83d8 14be
00000010: d7e8 fbbe b5e5 023e 91c9 37be 53c5 a5be
00000020: 1d86 843c 05fd 783e cd6d 5cbe baf2 b53d
00000030: 5739 493e 2dab b93d 7daf 2c3e 2158 bb3e
00000040: 64f0 29be 57a6 463d 8170 643e 9bd4 49bc
00000050: b62a 203e c177 113e e601 02be 2667 82bd
00000060: a090 89bd 88f2 a8be 275a d0bd 8d1a 3e3e
00000070: 4a7e 523d 9352 15bf ebc6 663c 9cec febd
00000080: f0a7 90be b546 39be 7940 c4bd 7826 42be
00000090: 1b20 9d3d 02d5 71bc e63c 73be 3eff 983c
000000a0: 0c46 20be 5710 92be 01cb 8d3e 7459 d93d
000000b0: 8019 d5bd c5ed ebbd af93 5cbe 4315 30be
000000c0: 7b26 77be ec82 9f3d 5fa0 92be 452e 3fbe
000000d0: fb88 95be a5dd e5bd e4bc 3dbd d554 d0bb
000000e0: 63f9 f0bd 7b06 0d3e f133 d03e a00a 663e
000000f0: 4c7d 94be 8cbd 7f3e a32f c03c ee8b 3fbd
00000100: 6191 46bd 072d 903d 15a0 92be fff6 80bb
00000110: f267 a93e 5258 25be e4cc 2fbe 0909 b93e
00000120: 4738 993e e179 2c3f 9bb9 183e d39c a6bd
00000130: f2f5 733d 5feb 1dbd c53b 91bc 6587 ffbc
00000140: d78b 0ebe c78b 54bc d11f cfbc 755e a33d
00000150: c856 2ebb a69a 9e3e 413b b0bd c627 753e
00000160: c868 963e 32c2 bc3d 91d0 2c3d 73b1 393e
00000170: 6898 12bd f06b 8dbe 3929 69be b421 c4bd
00000180: fc50 89be f9db 64be 3e1d 64be 4911 76be
00000190: cafc 17be 936c 9e3d 3599 9b3c e2ad 34bd
000001a0: d0fd ff3d d3cc 793d 6a5c 9e3e aac2 bb3e
000001b0: 3d37 9ebc f064 2ebe 9a27 9e3e 6e1e 063e
000001c0: c841 d8be 3705 8f3c a6d7 75bd 5c0c 91be
000001d0: 2bf6 833e 19d7 c23d 08e1 9d3d 9ea1 013e
000001e0: 8a28 34be 7b82 ac3d 1d1d 3d3f 73d3 813d
000001f0: 09e0 8e3d fb0a 0d3e 4dd4 88be fe2b b2bd
00000200: 2c21 303e 472d 833d d623 163e fa04 863e
00000210: cc65 39be 414f 8abe 3142 d0bd 73ca 32bd
00000220: c78f 00be 3baa 56be 0115 43be 89c6 60be
00000230: 6a03 92be 2f01 2c3e 8165 ac3e 0ab2 473e

encoder.0.bias f4 [16]
0.0004260206 -0.16992083 0.018075006 -0.13193525 -0.15059166 0.07275937 -0.3252296 0.16660361
-0.17134425 0.038048387 -0.20862733 -0.14105293 -0.03586859 0.039672583 0.28735337 -0.2746568
00000000: 845b df39 baff 2dbe 0912 943c 091a 07be
00000010: b334 1abe dd02 953d 7e84 a6be 239a 2a3e
00000020: de74 2fbe a0d8 1b3d 67a2 55be 2e70 10be
00000030: f1ea 12bd b87f 223d fb1f 933e d19f 8cbe

encoder.1.weight f4 [16]
0.9645522 0.8501262 0.87958497 1.0107014 0.9990602 1.0851327 0.98005956 0.89519006
0.8352229 1.0874728 1.1046842 0.87774414 0.87218994 0.9740541 0.8990376 0.89305615
00000000: e5ec 763f dfa1 593f 7b2c 613f aa5e 813f
00000010: 69c2 7f3f a1e5 8a3f 2fe5 7a3f 2d2b 653f
00000020: 2bd1 553f 4f32 8b3f 4b66 8d3f d7b3 603f
00000030: d747 5f3f 9c5b 793f 5427 663f 549f 643f

encoder.1.bias f4 [16]
0.40749255 0.0375519 0.3621427 0.13685477 0.49976096 -0.17852154 -0.06860578 -0.12890606
0.44006014 -0.28899363 -0.11467978 0.58447665 -0.09807856 -0.19007263 -0.82613313 -0.39446095
00000000: dda2 d03e 05d0 193d c56a b93e a823 0c3e
00000010: abe0 ff3e 5ace 36be 3081 8cbd f3ff 03be
00000020: 904f e13e f9f6 93be 3cdd eabd 43a0 153f
00000030: 69dd c8bd 66a2 42be 767d 53bf c9f6 c9be

encoder.1.running_mean f4 [16]
0.3594122 -0.45346913 0.13412534 0.35300538 -0.0024587126 0.6535145 -0.59378076 0.11212401
-0.45965514 -0.3163048 0.24051878 -0.38965553 0.07621702 -0.45518848 0.36104035 -0.14415374
00000000: e004 b83e 1b2d e8be 2758 093e 1fbd b43e
00000010: 5a22 21bb ba4c 273f 0402 18bf 46a1 e53d
00000020: eb57 ebbe b4f2 a1be 8e4a 763e ee80 c7be
00000030: ab17 9c3d 770e e9be 48da b83e 0a9d 13be

encoder.1.running_var f4 [16]
0.4122924 0.278618 0.07756673 0.6391133 0.12685077 0.8824703 0.20849505 0.11974699
0.38975942 0.33559498 0.5360559 0.20337291 0.09793005 0.65891856 0.076600626 0.12000226
00000000: fd17 d33e 05a7 8e3e 4edb 9e3d ee9c 233f
00000010: 2be5 013e 93e9 613f ba7f 553e e93d f53d
00000020: 8c8e c73e 1bd3 ab3e f63a 093f fd40 503e
00000030: 8d8f c83d e3ae 283f cae0 9c3d bfc3 f53d

encoder.3.weight f4 [4, 16, 3, 3]
-0.008553486 0.02356988 0.06134282 0.017201466 0.02837766 -0.018113451 -0.04774447 0.044762004
0.20222682 -0.094047785 -0.023992779 -0.0004870504 -0.039183944 0.013043162 0.02194034 0.0061962623
-0.013464436 -0.035668604 0.028342254 0.0016927639 0.0067984215 -0.0141282305 0.02099698 0.026714303
-0.04235777 0.09402587 0.15765719 -0.003147003 -0.03687862 -0.031448346 -0.008747647 -0.002177105
-0.021205785 0.07377552 0.16357902 0.0034510486 0.0026373968 0.021460671 0.03808307 -0.022035364
-0.10970955 -0.013111845 0.020599347 0.18052912 0.2603218 0.034227774 -0.002634806 -0.052404094
0.056080278 0.07873776 0.08811912 -0.06950106 0.21302912 0.15898016 0.010836943 -0.011158607
-0.05497107 0.028312836 0.16764516 0.14834602 -0.027943876 0.04312282 0.045956053 0.017141756
-0.07959811 -0.07533473 0.09798186 0.0464978 0.032635674 -0.022085505 -0.0015372502 0.0021511174
-0.030738754 -0.06669686 0.0016677458 0.04504065 -0.0015163453 0.016500436 0.03896943 -0.07611888
-0.1073233 0.010994193 0.043335505 0.09437102 0.08676241 0.0479784 0.16153045 0.07053305
-0.11597646 -0.18565308 -0.037886735 0.0055216546 -0.0621717 -0.00878016 -0.009850509 0.122802936
-0.12926395 0.08948738 0.14736564 -0.0116511965 0.039406266 0.009379508 -0.068935245 0.087731265
0.13253751 -0.010569711 -0.09740588 -0.15777615 -0.009734491 -0.00024742025 -0.12200676 0.055772614
0.072387345 -0.08650968 0.008737802 0.09780445 -0.06297185 -0.021279681 0.090226814 -0.021110551
-0.019615946 0.13201427 -0.014113693 -0.013976749 0.024023104 0.00011090484 -0.02220856 -0.01056875
0.03480861 0.015892657 0.11248859 0.23691496 -0.021690823 -0.058578376 0.032566227 -0.009187617
0.062263124 0.0319846 0.09770767 0.033192042 -0.08005134 -0.054225944 -0.020058116 -0.10437311
-0.020062665 -0.02701645 0.05102494 0.007815476 0.06901327 -0.15665169 -0.0022427186 0.025432434
-0.10753723 -0.11112254 0.073874 -0.020905104 -0.12048775 0.11431169 -0.0066912617 -0.07759897
0.058891438 0.11052673 0.023844775 0.07918454 0.0027770558 0.014774423 -0.03951173 -0.05448983
0.0034959868 0.034853954 0.051317416 0.0032714924 0.021899732 0.044306606 -0.027125727 0.031469453
-0.0454651 0.020885255 -0.08507431 -0.019482384 -0.03779029 0.032422476 0.08570157 0.012485149
0.017544722 -0.033001114 0.008265656 0.0143417865 0.0029192963 -0.078349024 0.049331427 0.03190769
0.01480551 -0.056751773 -0.18374369 0.08852373 -0.0184846 -0.0463701 -0.027207347 0.021277038
-0.017006954 -0.01514952 0.09639345 0.14141335 0.003460442 0.14311466 0.20000805 -0.0021968912
-0.00328576 -0.0030016277 0.027966063 0.04749872 0.026594322 0.022502227 0.023751535 0.021556566
-0.056516133 -0.002920555 -0.07966693 0.01741492 0.096684776 0.08896398 -0.02685784 0.07404596
0.13250978 0.06585459 -0.020568112 0.043835867 0.057673056 0.06692256 0.25121376 -0.032323632
0.10269294 0.12036199 -0.076685324 0.073538736 -0.05182694 -0.012253756 -0.107128516 -0.2855961
0.018597765 0.0016594607 0.01708862 -0.09649548 0.01726879 -0.093363814 -0.09400236 0.07632697
0.12205061 -0.01850699 0.01576446 0.1637127 -0.02048682 0.029695153 -0.049083635 -0.0012842389
00000000: ec23 0cbc 9f15 c13c 9c42 7b3d 17ea 8c3c
00000010: 4478 e83c a962 94bc b58f 43bd 5d58 373d
00000020: 8c14 4f3e 209c c0bd 818c c4bc cc5a ffb9
00000030: 587f 20bd fdb2 553c 3abc b33c 040a cb3b
00000040: f099 5cbc 3e19 12bd 042e e83c bbdf dd3a
00000050: 4bc5 de3b 187a 67bc dc01 ac3c f4d7 da3c
00000060: 577f 2dbd a390 c03d e370 213e f33d 4ebb
00000070: 090e 17bd fbcf 00bd 4a52 0fbc c3ad 0ebb
00000080: c1b7 adbc 9f17 973d 4281 273e fd2a 623b
00000090: 2dd8 2c3b 4ace af3c fefc 1b3d 8283 b4bc
000000a0: 67af e0bd 10d3 56bc f6bf a83c a0dc 383e
000000b0: e648 853e 6c32 0c3d b6ac 2cbb ada5 56bd
000000c0: 6fb4 653d 4341 a13d cc77 b43d 9256 8ebd
000000d0: 4e24 5a3e b2cb 223e 6f8d 313c 97d2 36bc
000000e0: 5829 61bd 52f0 e73c 2cab 2b3e 05e8 173e
000000f0: 8eea e4bc 8ea1 303d 6a3c 3c3d de6c 8c3c
00000100: 5504 a3bd 1849 9abd b7aa c83d 7a74 3e3d
00000110: fcac 053d a9ec b4bc 8f7d c9ba c3f9 0c3b
00000120: d7cf fbbc 5d98 88bd 4398 da3a 8b7c 383d
00000130: 1bc0 c6ba ec2b 873c 699e 1f3d 37e4 9bbd
00000140: 51cc dbbd fd20 343c 9280 313d 9845 c13d
00000150: 7eb0 b13d 0085 443d 3d68 253e a273 903d
00000160: 1185 edbd d71b 3ebe 1f2f 1bbd ffee b43b
00000170: c1a7 7ebd a9da 0fbc 0864 21bc 1b80 fb3d
00000180: c55d 04be 2945 b73d 05e7 163e a9e4 3ebc
00000190: 7768 213d 82ac 193c ec2d 8dbd 73ac b33d
000001a0: eab7 073e 952c 2dbc bc7c c7bd 1290 21be
000001b0: 6a7d 1fbc 2fb8 81b9 aede f9bd d371 643d
000001c0: d13f 943d fd2b b1bd ff28 0f3c b34d c83d
000001d0: 63f7 80bd ba52 aebc d6c8 b83d 09f0 acbc
000001e0: 9fb1 a0bc c02e 073e 1e3d 67bc bcfe 64bc
000001f0: 1acc c43c 9595 e838 baee b5bc 8d28 2dbc
00000200: 7993 0e3d 5131 823c 6b60 e63d d699 723e
00000210: f4b0 b1bc e1ef 6fbd 2a64 053d a987 16bc
00000220: 9e07 7f3d 4902 033d f51a c83d 61f4 073d
00000230: f5f1 a3bd 061c 5ebd eb50 a4bc 92c1 d5bd
00000240: 755a a4bc 9a51 ddbc 87ff 503d 7b0c 003c
00000250: d456 8d3d 4d69 20be 93fa 12bb ae57 d03c
00000260: 7b3c dcbd 3794 e3bd 404b 973d 2e41 abbc
00000270: 48c2 f6bd 3f1c ea3d 5f42 dbbb 35ec 9ebd
00000280: 2638 713d d75b e23d 1e56 c33c 812b a23d
00000290: 44ff 353b 6c10 723c 0dd7 21bd ba30 5fbd
000002a0: ed1c 653b 05c3 0e3d 3632 523d 8966 563b
000002b0: 1167 b33c d87a 353d c636 debc 1de6 003d
000002c0: 9d39 3abd 8e17 ab3c 713b aebd 8599 9fbc
000002d0: fec9 1abd 6ecd 043d 4e84 af3d 838e 4c3c
000002e0: f3b9 8f3c 2d2c 07bd ad6c 073c d0f9 6a3c
000002f0: aa51 3f3b 7475 a0bd c00f 4a3d a3b1 023d
00000300: cf92 723c 8c74 68bd 4e27 3cbe ee4b b53d
00000310: 046d 97bc 93ee 3dbd f1e1 debc 2f4d ae3c
00000320: 2b52 8bbc b135 78bc ee69 c53d a9ce 103e
00000330: 95c8 623b a68c 123e e9ce 4c3e b8f9 0fbb
00000340: e855 57bb f5b6 44bb 1619 e53c 058e 423d
00000350: 56dc d93c 9756 b83c 9492 c23c 6597 b03c
00000360: 767d 67bd c866 3fbb 6a28 a3bd bca9 8e3c
00000370: ab02 c63d bf32 b63d f904 dcbc 69a5 973d
00000380: a5b0 073e c5de 863d 757e a8bc 3d8d 333d
00000390: 953a 6c3d b20e 893d 179f 803e c965 04bd
000003a0: ad50 d23d 5980 f63d 320d 9dbd 7a9b 963d
000003b0: 7c48 54bd fac3 48bc 3266 dbbd a739 92be
000003c0: 575a 983c 4382 d93a 6ffd 8b3c 6c9f c5bd
000003d0: 4777 8d3c 8735 bfbd 4f84 c0bd 5051 9c3d
000003e0: acf5 f93d f99b 97bc 7824 813c 4da4 273e
000003f0: fad3 a7bc 4043 f33c ec0b 49bd e853 a8ba

encoder.3.bias f4 [4]
0.036241192 0.028035127 0.08863941 -0.025234984
00000000: a571 143d eca9 e53c 9488 b53d 99b9 cebc

encoder.4.weight f4 [4]
0.8055095 1.4039372 0.8733443 0.7341711
00000000: df35 4e3f 37b4 b33f 7e93 5f3f a3f2 3b3f

encoder.4.bias f4 [4]
1.1383659 0.8945155 0.8687044 1.3895179
00000000: f9b5 913f f8fe 643f 6963 5e3f b9db b13f

encoder.4.running_mean f4 [4]
0.9674042 0.5501035 1.9729471 0.9077258
00000000: cda7 773f 95d3 0c3f 8889 fc3f b860 683f

encoder.4.running_var f4 [4]
0.5414361 2.286654 0.4330949 0.35137522
00000000: 8e9b 0a3f 8a58 1240 9dbe dd3e 74e7 b33e

pre_quant_conv.weight f4 [16, 4, 3, 3]
0.0049829106 -0.06541024 -0.08093015 0.006687885 0.2949769 -0.1413567 0.0032039774 -0.2216996
0.040592317 0.034607194 -0.048929714 -0.013052741 -0.12396542 -0.84669095 -0.053999085 0.025457466
-0.05368696 -0.006881182 0.0040197996 -0.0018397918 0.04340629 -0.06410197 0.17057256 -0.06961233
0.110630065 0.022245998 0.012954194 0.00059157383 0.03648165 0.068391025 -0.011461118 0.4299417
0.13496405 0.004285638 0.066955805 0.05998078 0.028960485 0.0538599 -0.011656855 -0.1425716
0.19439848 -0.058665153 0.007452096 -0.088721864 -0.0050058034 0.0018714764 -0.05880149 -0.005068447
0.07038584 0.35662583 -0.015145853 -0.011259226 0.03767296 -0.037991133 0.008902475 0.096839376
-0.06917855 0.016758535 -0.8457947 0.06143369 -0.006779271 0.04162081 -0.034726862 -0.064599216
-0.058928184 0.044690765 0.16640034 0.29089123 0.06071328 0.033403084 0.029619426 0.024927517
0.009926052 -0.02179029 -0.07530453 -0.119402125 -0.15715708 -0.005282949 -0.03153013 0.17170863
0.03925864 0.020840611 0.08055127 -0.044119343 0.053077 0.6558178 0.015058134 -0.03911842
0.06348417 0.009827951 -0.042222165 0.025538085 0.030919917 0.06355971 -0.42224187 0.10919864
-0.059367035 -0.03532833 -0.07437658 -0.02145306 0.09840956 0.0025227515 0.11090898 -0.50207335
-0.027400397 0.017839177 -0.080778 -0.030891577 0.017598383 -0.03135164 0.011081246 -0.08947544
-1.0385367 -0.15505572 -0.017293256 0.055336095 0.068458796 -0.021069381 0.067971095 -0.034725696
0.051861003 0.24657452 -0.07101768 -0.017339092 -0.14613864 0.032729235 0.063823186 0.02310856
0.053772815 0.011504728 -0.014073421 -0.138228 0.005213215 0.13796164 0.03600956 -0.011152785
-0.043386977 -0.06589772 0.0041740513 -0.08027948 0.3662034 0.0070796977 -0.11951213 -0.17371042
0.023271535 -0.040908456 -0.063735984 0.11242686 -0.5059548 0.24299048 -0.052864768 -0.018015133
-0.059322063 -0.08004175 -0.00018488866 -0.025636187 0.100637116 0.2781606 0.005742397 -0.018012408
-0.026997069 -0.033329457 0.017026842 -0.07168926 -0.0956576 -0.070793994 0.04010619 0.11251147
-0.06562026 -0.079006255 -0.096041195 0.0023010864 -0.020854529 0.18685462 -0.024397276 0.5522294
-0.47134465 0.051867098 0.13771573 0.15774032 0.056401018 -0.25729725 0.031261146 -0.09008591
-1.0666155 0.32240802 -0.002528378 0.041592006 -0.23301241 -0.024102902 0.08565047 0.00052698364
0.039984588 0.73824084 -0.0069113155 0.030340416 -0.18426718 -0.008491715 -0.015147762 0.06815034
-0.09250914 0.008280517 0.17025517 0.066046715 0.030730586 -0.00039806854 0.03860235 -0.0063326657
0.063209616 0.16241288 0.041840706 -0.22821753 -0.5701419 -0.05527398 0.0016675676 0.19545257
-0.00019822545 -0.05842465 0.11490897 0.031211454 0.6323467 0.23746549 -0.00581935 0.062092718
-0.030022427 0.005218923 -0.09611864 0.049308788 -0.039462723 -0.45631382 0.086323574 -0.017953437
0.13007565 0.026979037 -0.0026738264 -0.030586984 -0.09897144 -0.015770787 -0.3093399 0.081084654
-0.040952608 -0.20912616 0.013708998 -0.011160466 0.030941924 0.092582 -0.053386312 0.071569815
-0.6129863 0.08611006 -0.028716346 0.11903204 -0.014126602 0.13348643 0.037096202 0.032998495
00000000: af47 a33b cef5 85bd b5be a5bd 0c26 db3b
00000010: 3607 973e d0bf 10be d2f9 513b 3805 63be
00000020: 2144 263d 46c0 0d3d 866a 48bd 2adb 55bc
00000030: 95e1 fdbd bdc0 58bf 252e 5dbd 2d8c d03c
00000040: dce6 5bbd 8a7b e1bb 86b8 833b 2b25 f1ba
00000050: cbca 313d e547 83bd 93aa 2e3e e990 8ebd
00000060: 0492 e23d 3d3d b63c d43d 543c d913 1b3a
00000070: c86d 153d 9810 8c3d 6ac7 3bbc 5221 dc3e
00000080: 0434 0a3e 8a6e 8c3b 2020 893d 68ae 753d
00000090: 8a3e ed3c 339c 5c3d 65fc 3ebc 4afe 11be
000000a0: 6510 473e df4a 70bd b630 f43b cfb3 b5bd
000000b0: b907 a4bb 544c f53a d5d9 70bd 3715 a6bb
000000c0: 7426 903d a997 b63e 5026 78bc 9e78 38bc
000000d0: f64e 1a3d 979c 1bbd b0db 113c b953 c63d
000000e0: 7cad 8dbd 3249 893c 0086 58bf e5a1 7b3d
000000f0: a624 debb 957a 2a3d c13d 0ebd 984c 84bd
00000100: ae5e 71bd aa0d 373d da64 2a3e b2ef 943e
00000110: 7dae 783d acd1 083d 70a4 f23c cb34 cc3c
00000120: e1a0 223c 8d81 b2bc 4339 9abd 1a89 f4bd
00000130: c9ed 20be 971c adbb bd25 01bd 63d4 2f3e
00000140: abcd 203d eeb9 aa3c 10f8 a43d 7cb6 34bd
00000150: 4567 593d ade3 273f 64b6 763c a33a 20bd
00000160: fd03 823d 6a05 213c 26f1 2cbd 3f35 d13c
00000170: c44b fd3c 982b 823d 1630 d8be 89a3 df3d
00000180: d92a 73bd 70b4 10bd c052 98bd 54be afbc
00000190: f48a c93d bf54 253b 3f24 e33d e187 00bf
000001a0: cc76 e0bc 7723 923c f06e a5bd 5510 fdbc
000001b0: 7c2a 903c 946a 00bd 1d8e 353c e63e b7bd
000001c0: c5ee 84bf edc6 1ebe 96aa 8dbc 1aa8 623d
000001d0: 2034 8c3d b299 acbc 6e34 8b3d 883c 0ebd
000001e0: 346c 543d 087e 7c3e b871 91bd b60a 8ebc
000001f0: 5ea5 15be 170f 063d bbb5 823d 2a4e bd3c
00000200: e240 5c3d 547e 3c3c 3594 66bc a48b 0dbe
00000210: 9ed3 aa3b d145 0d3e c37e 133d 2cba 36bc
00000220: 8bb6 31bd 62f5 86bd 7bc6 883b 9169 a4bd
00000230: 037f bb3e cffc e73b c7c2 f4bd 25e1 31be
00000240: f2a3 be3c a08f 27bd 0388 82bd 0e40 e63d
00000250: 4186 01bf 7fd2 783e ba88 58bd 7994 93bc
00000260: b1fb 72bd eeec a3bd acde 41b9 fb02 d2bc
00000270: d51a ce3d 116b 8e3e b82a bc3b c28e 93bc
00000280: f528 ddbc 7884 08bd e07b 8b3c d2d1 92bd
00000290: 22e8 c3bd 71fc 90bd 6346 243d 6a6c e63d
000002a0: ea63 86bd 08ce a1bd 3fb1 c4bd d3cd 163b
000002b0: 1ed7 aabc d156 3f3e ccdc c7bc e85e 0d3f
000002c0: 1654 f1be 9872 543d 5a05 0d3e ae86 213e
000002d0: c104 673d 77bc 83be b00b 003d f67e b8bd
000002e0: db86 88bf aa12 a53e 25b3 25bb 615c 2a3d
000002f0: ce9a 6ebe 7373 c5bc 8369 af3d 4625 0a3a
00000300: e1c6 233d 5afd 3c3f 5178 e2bb 778c f83c
00000310: 89b0 3cbe d620 0bbc 522e 78bc 6892 8b3d
00000320: 6f75 bdbd 01ab 073c 5f57 2e3e 8043 873d
00000330: b6be fb3c dbb3 d0b9 7f1d 1e3d 4082 cfbb
00000340: 0b74 813d 904f 263e 2961 2b3d dbb1 69be
00000350: d2f4 11bf f866 62bd 4992 da3a b824 483e
00000360: bdda 4fb9 b04e 6fbd 6555 eb3d 2aaf ff3c
00000370: 79e1 213f 272a 733e 3fb0 bebb ef54 7e3d
00000380: 98f1 f5bc 8003 ab3b d9d9 c4bd 03f8 493d
00000390: aaa3 21bd f7a1 e9be 6aca b03d 1613 93bc
000003a0: 8d32 053e 2403 dd3c 5d3b 2fbb 8e91 fabc
000003b0: 8ab1 cabd bd31 81bc cd61 9ebe b60f a63d
000003c0: ecbd 27bd 2b25 56be b59b 603c 63da 36bc
000003d0: eb79 fd3c a29b bd3d 9bab 5abd 3293 923d
000003e0: acec 1cbf 795a b03d 8b3e ebbc 12c7 f33d
000003f0: 4373 67bc abb0 083e 30f2 173d 6e29 073d

pre_quant_conv.bias f4 [16]
-0.11552611 -0.43618977 0.29635894 0.6792599 0.102861114 0.4241386 0.307533 0.40556157
0.3560683 0.2934204 -0.15319732 0.2640951 -0.09266975 -0.054134827 -0.3142612 0.39672938
00000000: f498 ecbd 4454 dfbe 5cbc 973e fae3 2d3f
00000010: d9a8 d23d b228 d93e f774 9d3e c4a5 cf3e
00000020: 964e b63e 333b 963e c2df 1cbe 7937 873e
00000030: a3c9 bdbd 7bbc 5dbd d8e6 a0be 1d20 cb3e

post_quant_conv.weight f4 [4, 16, 3, 3]
-0.12214212 -0.009353254 -0.015899379 -0.048275743 -0.07252895 -0.042764653 -0.10188131 -0.024096068
-0.009903272 -0.04586649 -0.03489733 -0.04374642 -0.14362797 -0.14827387 -0.12032639 -0.07252989
-0.036102626 -0.011805804 0.016010057 0.04209394 -0.020690823 0.032350425 0.11961347 -0.022316411
0.053847052 -0.022761062 0.051479615 0.04011037 0.099212095 -0.020201486 -0.09266523 0.08373515
0.0027451182 0.024345696 0.07496357 0.023527505 0.004250719 -0.09014186 -0.020217193 0.19287603
-0.18620965 -0.016985197 0.007564175 -0.0011871395 0.0011665612 -0.041763242 0.06623792 0.007052219
0.2670894 0.18611693 -0.017740209 -0.053885844 0.042742632 -0.06492685 0.07404663 0.04268092
-0.025634019 0.40564793 0.025873384 0.0867076 0.038540196 -0.00033977898 0.042187925 -0.05224332
0.0360616 0.035969324 -0.036744595 -0.033416986 0.014475221 0.05613971 0.07823561 -0.0476135
0.11529197 0.040505532 0.00044721703 0.091761805 0.0857485 0.078248516 0.06776444 0.018806087
0.014974785 0.024857776 -0.046188824 0.020102197 -0.082537524 -0.0051133237 0.031589385 0.086958095
0.0005316063 -0.00016001439 -0.051315457 -0.050298844 0.032280557 -0.12108232 -0.013364572 0.10705618
-0.024332225 -0.01884591 -0.053987734 0.07453506 -0.019876419 -0.02079306 0.037082527 -0.0883105
-0.02173688 0.10462511 -0.020832218 0.02667756 -0.030748455 0.11845237 0.07591713 -0.06959154
0.1621345 -0.049698047 0.018236319 -0.023868581 0.0052793315 0.01385156 -0.15018429 -0.016394092
-0.03018777 -0.3081604 -0.019318681 0.015451219 -0.055519283 0.011589271 -0.05814327 -0.014590363
0.01803389 0.068130925 0.056252662 -0.021675942 -0.016985297 -0.01957709 0.04770981 -0.017380906
-0.0063174926 -0.023856157 0.026417319 0.16503696 0.01825372 0.029980972 -0.023223674 -0.014929097
0.0564245 0.13648503 0.06910985 0.02516855 0.069616586 -0.039344713 0.100662954 0.08681482
-0.019475482 -0.0056628543 0.07808034 -0.0364695 0.017906314 -0.263204 0.09609103 -0.02499796
-0.004799004 -0.036041927 -0.14742959 -0.14512666 -0.05210075 0.049313158 -0.14101422 0.104800045
0.12136507 0.011458343 -0.008401319 -0.08443524 -0.014733309 0.0037962429 0.040432107 0.19018617
0.014566445 0.010748017 0.038072705 0.031364623 -0.02863065 -0.027677052 -0.034081645 -0.05243135
0.12787482 -0.09051886 -0.0008213622 -0.10124259 -0.03751309 0.17044798 0.024772383 0.051631466
-0.12471359 0.27255115 -0.0052463617 -0.016618084 0.16342133 -0.05094634 0.0071548135 -0.1770805
-0.058585905 -0.10894812 -0.19403724 0.012110462 -0.08666202 0.046975493 0.0058897887 0.019520698
0.008546419 0.039580908 -0.064767644 0.056724668 -0.10919929 0.00661619 -0.037564825 0.009834428
-0.031802695 0.055956397 -0.032171518 0.041961163 -0.14342073 0.01003546 0.01096258 -0.026608212
0.009009169 -0.09669581 -0.041994065 -0.08484939 0.17449252 0.14573033 0.06695194 0.0052419794
0.024098681 0.05822226 -0.019820828 0.047444742 -0.0028616788 0.03936721 -0.20372735 -0.08718156
0.018440448 -0.035630897 0.066010654 -0.14978528 -0.016145092 -0.1120007 0.019109124 0.0494971
0.10673332 -0.026257077 0.006395501 0.028415741 -0.03138531 0.06262973 0.0102470005 -0.12714836
00000000: a625 fabd 643e 19bc 6a3f 82bc c9bc 45bd
00000010: 0f8a 94bd fd29 2fbd 26a7 d0bd 1e65 c5bc
00000020: 5541 22bc 80de 3bbd 81f0 0ebd 722f 33bd
00000030: 3613 13be 1bd5 17be af6d f6bd 8d8a 94bd
00000040: 59e0 13bd 226d 41bc 8627 833c b26a 2c3d
00000050: cd7f a9bc e181 043d e8f7 f43d e8d0 b6bc
00000060: ba8e 5c3d 6875 babc 4adc 523d c54a 243d
00000070: b62f cb3d 967d a5bc 45c7 bdbd 567d ab3d
00000080: 71e7 333b a070 c73c 8086 993d c1bc c03c
00000090: 9e49 8b3b 4c9c b8bd 879e a5bc 4b81 453e
000000a0: bead 3ebe 8a24 8bbc e6dc f73b cb99 9bba
000000b0: 4ce7 983a ef0f 2bbd bfa7 873d 4d16 e73b
000000c0: f1bf 883e 7095 3e3e ea53 91bc 67b7 5cbd
000000d0: e612 2f3d 5ef8 84bd c2a5 973d 30d2 2e3d
000000e0: 6ffe d1bc 16b1 cf3e 6bf4 d33c c193 b13d
000000f0: 53dc 1d3d 5d24 b2b9 3fcd 2c3d 17fd 55bd
00000100: 54b5 133d 9254 133d 8081 16bd 40e0 08bd
00000110: 7a29 6d3c c1f2 653d fe39 a03d 6006 43bd
00000120: 321e ec3d 21e9 253d 7478 ea39 9ded bb3d
00000130: e99c af3d c240 a03d 15c8 8a3d 390f 9a3c
00000140: cd58 753c 89a2 cb3c 7e30 3dbd 5dad a43c
00000150: 6f09 a9bd ab8d a7bb df63 013d 1617 b23d
00000160: 7f5b 0b3a 89c9 27b9 2830 52bd 2906 4ebd
00000170: 9e38 043d 02fa f7bd 14f7 5abc 4540 db3d
00000180: 6054 c7bc bd62 9abc 3e22 5dbd d6a5 983d
00000190: dfd3 a2bc 3556 aabc d9e3 173d 23dc b4bd
000001a0: 8b11 b2bc b145 d63d 54a8 aabc e68a da3c
000001b0: 2fe4 fbbc 2897 f23d 717a 9b3d 0286 8ebd
000001c0: 9606 263e 2e90 4bbd 5564 953c 0b88 c3bc
000001d0: 3efe ac3b a7f1 623c e9c9 19be e74c 86bc
000001e0: 584c f7bc 33c7 9dbe 3642 9ebc 1c27 7d3c
000001f0: 3068 63bd ede0 3d3c a327 6ebd 6b0c 6fbc
00000200: cfbb 933c 3a88 8b3d 3169 663d bf91 b1bc
00000210: c024 8bbc 2260 a0bc 5d6b 433d 6762 8ebc
00000220: f802 cfbb fd6d c3bc 2269 d83c 73ff 283e
00000230: d388 953c a89a f53c 933f bebc 2c99 74bc
00000240: 601d 673d bbc2 0b3e 7789 8d3d 462e ce3c
00000250: 2493 8e3d ec27 21bd 6128 ce3d f8cb b13d
00000260: 0c8b 9fbc 778f b9bb 96e8 9f3d 0b61 15bd
00000270: 43b0 923c adc2 86be 60cb c43d 86c8 ccbc
00000280: f740 9dbb b3a0 13bd c8f7 16be 159c 14be
00000290: 9967 55bd 98fc 493d 0866 10be 68a1 d63d
000002a0: 408e f83d c6bb 3b3c b0a5 09bc 62ec acbd
000002b0: fa63 71bc 63ca 783b 239c 253d 2ac0 423e
000002c0: 19a8 6e3c 7318 303c 20f2 1b3d 3178 003d
000002d0: d38a eabc fcba e2bc 3299 0bbd 41c2 56bd
000002e0: 9ef1 023e f461 b9bd af50 57ba 4658 cfbd
000002f0: 53a7 19bd ea89 2e3e 74ef ca3c 847b 533d
00000300: d769 ffbd d38b 8b3e ace9 abbb a622 88bc
00000310: ec57 273e 1cad 50bd ed72 ea3b 9754 35be
00000320: c6f7 6fbd 3120 dfbd b3b1 46be f66a 463c
00000330: db7b b1bd 6069 403d 21ff c03b dfe9 9f3c
00000340: 4806 0c3c 971f 223d e6a4 84bd 2058 683d
00000350: e1a3 dfbd a0cc d83b 93dd 19bd 9520 213c
00000360: 8b43 02bd 8932 653d 48c6 03bd 78df 2b3d
00000370: e2dc 12be c56b 243c 659c 333c 77f9 d9bc
00000380: 329b 133c 7408 c6bd f801 2cbd 84c5 adbd
00000390: 2bae 323e 553a 153e 191e 893d e9c4 ab3b
000003a0: 996a c53c 777a 6e3d 4a5f a2bc 6b55 423d
000003b0: 018b 3bbb 833f 213d e79d 50be 3f8c b2bd
000003c0: 6c10 973c b4f1 11bd 9830 873d 5061 19be
000003d0: b642 84bc 9f60 e5bd bd8a 9c3c 79bd 4a3d
000003e0: 0097 da3d 1519 d7bc 5a91 d13b 21c8 e83c
000003f0: e28d 00bd 0444 803d 09e3 273c 2e33 02be

post_quant_conv.bias f4 [4]
-0.055867966 0.06423084 -0.30838457 0.12351916
00000000: cfd5 64bd 758b 833d 95e4 9dbe 9df7 fc3d

decoder.0.weight f4 [4, 16, 3, 3]
0.05305422 0.04544056 0.031643327 0.014933336 -0.08555016 0.08697294 0.1276148 -0.017771505
0.026930194 0.06624286 0.05978565 0.09134031 -0.0506151 -0.030017965 -0.024931444 -0.064387426
0.1496333 0.23767735 -0.058260825 0.032619666 0.18340252 -0.03979834 0.023888288 0.0974608
0.041568447 0.058235157 0.0043377886 -0.021741485 0.12265774 0.021469334 -0.045498867 0.20429192
-0.08701928 0.0067745494 -0.12422903 -0.066600494 -0.057851244 -0.012764941 -0.02985108 0.048835948
-0.045134008 -0.027846979 -0.08548105 0.042262517 0.013628625 0.037358657 -0.21604192 -0.029815126
-0.01955335 0.025820559 -0.006940143 0.015142402 -0.023238499 -0.07765544 0.06645365 0.05580576
0.11186269 0.04441426 0.05948273 0.051330216 0.033984534 0.089492366 -0.08704558 0.06821153
-0.10224572 -0.034133453 -0.049479544 0.0034572242 -0.08214507 -0.035147566 0.12341866 -0.104945704
-0.11234163 0.033188235 -0.11946211 0.10293192 0.028195988 0.14078407 -0.027904736 0.21691304
-0.004334525 -0.038564105 -0.12081193 -0.081039846 0.026526835 -0.085177265 -0.07983958 0.14125419
-0.07706006 -0.04366464 -0.048223566 -0.0040627383 0.013625915 -0.12855496 -0.16031654 -0.06854443
-0.0978611 -0.0913411 -0.009556882 -0.046920106 0.0054603023 0.13861609 0.17115675 -0.08517282
0.048776843 -0.051365245 -0.103387885 0.25565857 0.010530644 -0.021288129 0.0051660724 -0.07795768
-0.039251305 0.0007253702 -0.13038751 -0.19999573 0.02719 0.0704595 0.15773699 0.07419144
0.007484054 -0.18299441 -0.013866065 -0.071451925 -0.058745835 -0.008055348 -0.04456048 0.20157497
0.015217498 -0.052692264 -0.18333918 -0.14346223 0.025637783 0.15370362 -0.08031624 -0.04518862
0.002136292 -0.005060916 -0.046540707 0.16338259 0.014133242 -0.035234742 0.015001816 -0.011585805
-0.08324781 0.06575376 -0.021495346 0.007392636 0.11562213 -0.009500251 0.056348756 0.04837299
0.0802805 0.054823834 -0.06256311 -0.13675204 0.0245725 -0.0340693 -0.14204793 -0.016996622
0.018272081 -0.06996213 -0.023198117 0.03020936 0.0029799386 0.0028315648 0.06691514 0.05433173
-0.01748537 -0.0060223704 -0.1686928 0.1614581 -0.048466478 0.14720225 0.04858362 -0.08070524
-0.05862607 0.09289697 -0.07418081 0.030526252 0.024475276 -0.020095898 -0.002192575 -0.0008139095
-0.048296306 -0.02299518 -0.06794915 0.05020432 -0.10899398 0.014665745 0.18211654 0.025150184
0.020110192 -0.15482323 -0.2123745 0.008388274 0.08205961 0.14708728 -0.049395625 0.008937121
0.18870048 0.004386081 0.08825686 -0.14030567 0.009881942 0.03921886 -0.015001742 0.01955357
0.013657522 0.002943478 -0.013110458 0.003201203 0.10072363 0.022444395 0.108013 0.14788419
-0.002326868 -0.066329904 -0.027545182 -0.08061902 -0.10556497 -0.049877923 -0.057009116 0.11393479
0.021274155 -0.014758457 0.0054789786 0.018347198 -0.0453507 -0.0024673017 -0.10516906 0.028904317
-0.107443675 0.014311622 0.046654865 0.067185715 0.03760858 0.070114374 0.04430876 0.13550946
-0.010831417 -0.07205813 -0.03856457 0.070532255 -0.036026824 -0.049376573 0.07569312 -0.109919295
-0.025840271 -0.026052091 -0.060742017 0.056302525 -0.019770838 0.010658475 0.011039546 0.042129412
00000000: 624f 593d e11f 3a3d 6f9c 013d f3aa 743c
00000010: ec34 afbd de1e b23d 74ad 023e 8c95 91bc
00000020: b69c dc3c 56aa 873d cce1 743d a110 bb3d
00000030: c751 4fbd 3ce8 f5bc 073d ccbc 8edd 83bd
00000040: 7939 193e b161 733e e7a2 6ebd 339c 053d
00000050: dfcd 3b3e 9603 23bd 5fb1 c33c 8799 c73d
00000060: ad43 2a3d fd87 6e3d 0224 8e3b 331b b2bc
00000070: fb33 fb3d 75e0 af3c 055d 3abd e731 513e
00000080: 2a37 b2bd 0afd dd3b ca6b febd d765 88bd
00000090: 6df5 6cbd 0b24 51bc 418a f4bc 3408 483d
000000a0: 70de 38bd 591f e4bc b010 afbd 761b 2d3d
000000b0: 994a 5f3c 6405 193d 183a 5dbe da3e f4bc
000000c0: 592e a0bc a385 d33c 246a e3bb d617 783c
000000d0: aa5e bebc d109 9fbd da18 883d 9594 643d
000000e0: 4418 e53d baeb 353d 2aa4 733d a23f 523d
000000f0: 5e33 0b3d c647 b73d f444 b2bd 7db2 8b3d
00000100: 3466 d1bd 85cf 0bbd 10ab 4abd 9992 623b
00000110: ad3b a8bd e5f6 0fbd ecc2 fc3d c6ed d6bd
00000120: 5e13 e6bd 63f0 073d 8da8 f4bd f8cd d23d
00000130: 46fb e63c b329 103e 7998 e4bc 741e 5e3e
00000140: a208 8ebb 65f5 1dbd 3f6c f7bd 38f8 a5bd
00000150: ce4e d93c 6b71 aebd ef82 a3bd f0a4 103e
00000160: aad1 9dbd b2d9 32bd 1386 45bd b820 85bb
00000170: 3b3f 5f3c e9a3 03be 052a 24be 0661 8cbd
00000180: 676b c8bd 0b11 bbbd 7894 1cbc 4c2f 40bd
00000190: 56ec b23b 60f1 0d3e b743 2f3e 166f aebd
000001a0: 3aca 473d 5d64 52bd 07bd d3bd aee5 823e
000001b0: b988 2c3c 7164 aebc 2848 a93b 47a8 9fbd
000001c0: fac5 20bd c526 3e3a 4e84 05be aecb 4cbe
000001d0: 90bd de3c 124d 903d ce85 213e aff1 973d
000001e0: cc3c f53b e362 3bbe 7e2e 63bc 6355 92bd
000001f0: 799f 70bd 94fa 03bc 0d85 36bd ab69 4e3e
00000200: d052 793c d8d3 57bd 44bd 3bbe c3e7 12be
00000210: 5406 d23c 7b64 1d3e d77c a4bd b417 39bd
00000220: 0801 0c3b 0ad6 a5bb 78a1 3ebd c44d 273e
00000230: 1d8f 673c 4e52 10bd 2dca 753c 63d2 3dbc
00000240: d47d aabd e8a9 863d 0217 b0bc ed3d f23b
00000250: 4ccb ec3d f1a6 1bbc f4cd 663d c222 463d
00000260: 1a6a a43d f58e 603d 1621 80bd ba08 0cbe
00000270: 444c c93c 408c 0bbd 0375 11be 803c 8bbc
00000280: 55af 953c 4e48 8fbd fa09 bebc 9f79 f73c
00000290: 134b 433b c691 393b ce0a 893d f38a 5e3d
000002a0: 7b3d 8fbc 4e57 c5bb cebd 2cbe 4655 253e
000002b0: c984 46bd 30bc 163e 9eff 463d ca48 a5bd
000002c0: e421 70bd c440 be3d 1cec 97bd 3112 fa3c
000002d0: 6080 c83c 27a0 a4bc 4eb1 0fbb 8b5c 55ba
000002e0: 59d2 45bd 6360 bcbc ed28 8bbd 0ca3 4d3d
000002f0: 3c38 dfbd 9848 703c c27c 3a3e c207 ce3c
00000300: 21be a43c fb89 1ebe b378 59be f96e 093c
00000310: de0e a83d 0c9e 163e 1153 4abd 016d 123c
00000320: b33a 413e 1db9 8f3b 03c0 b43d 4aac 0fbe
00000330: dee7 213c f5a3 203d dec9 75bc cf2e a03c
00000340: cdc3 5f3c 5ee7 403b 3fcd 56bc 46cb 513b
00000350: 3148 ce3d 4fdd b73c eb35 dd3d f46e 173e
00000360: 5e7e 18bb f9d7 87bd 6fa6 e1bc 961b a5bd
00000370: 7232 d8bd cb4c 4cbd 6482 69bd a556 e93d
00000380: 2347 ae3c 75cd 71bc 0189 b33b dd4c 963c
00000390: a8c1 39bd 74b2 21bb e062 d7bd bfc8 ec3c
000003a0: 6e0b dcbd 4b7b 6a3c 2c19 3f3d aa98 893d
000003b0: 740b 1a3d 2098 8f3d 1a7d 353d fec2 0a3e
000003c0: 4176 31bc 3693 93bd e2f5 1dbd 3773 903d
000003d0: dd90 13bd 173f 4abd ff04 9b3d 5e1d e1bd
000003e0: faae d3bc 326b d5bc 9fcc 78bd 7a9d 663d
000003f0: 74f6 a1bc e2a0 2e3c 36df 343c e48f 2c3d

decoder.0.bias f4 [16]
-0.07519422 0.051970538 -0.062391087 0.041826017 -0.084855564 -0.045938242 -0.06029725 -0.035344634
-0.0753919 -0.07734412 -0.031093458 0.020890212 0.010087061 0.06920868 -0.01954406 -0.055457406
00000000: 6dff 99bd 0fdf 543d cc8d 7fbd c251 2b3d
00000010: c1c8 adbd bd29 3cbd 40fa 76bd 89c5 10bd
00000020: 1267 9abd 9866 9ebd b5b7 febc f321 ab3c
00000030: 3344 253c 48bd 8d3d dd1a a0bc 4e27 63bd

decoder.1.weight f4 [16]
1.0326642 1.012501 1.0167341 0.8977702 0.9585858 0.98654133 1.0308548 0.9276083
0.9300204 1.0367589 1.022178 0.94302744 1.0524113 1.047151 0.96025485 0.91998756
00000000: 572e 843f a299 813f 5824 823f 45d4 653f
00000010: e165 753f f98d 7c3f 0df3 833f bd77 6d3f
00000020: d115 6e3f 84b4 843f bbd6 823f 3f6a 713f
00000030: 6ab5 863f 0b09 863f 43d3 753f 4e84 6b3f

decoder.1.bias f4 [16]
-0.057865743 0.051666304 0.11671521 -0.0826559 -0.04754461 0.007349675 0.02799046 -0.14880395
0.002786265 -0.23742853 -0.26394233 0.012516895 -0.12841325 0.01282713 -0.03897008 -0.17459907
00000000: a104 6dbd 0ca0 533d 6208 ef3d 7f47 a9bd
00000010: 23be 42bd 8bd5 f03b 404c e53c 1060 18be
00000020: c599 363b 7720 73be 7323 87be aa13 4d3c
00000030: c37e 03be e228 523c 179f 1fbd 19ca 32be

decoder.1.running_mean f4 [16]
-0.21112739 -0.15304823 -0.2599933 0.08327024 0.106534876 -0.044834346 -0.12394155 0.09705471
-0.17377952 0.12745565 0.068575114 -0.030582597 0.09390658 0.088483386 -0.0045524435 -0.09525354
00000000: c731 58be adb8 1cbe d81d 85be 9689 aa3d
00000010: f52e da3d 38a4 37bd 11d5 fdbd 9fc4 c63d
00000020: 42f3 31be bc83 023e 1c71 8c3d 5b88 fabc
00000030: 1852 c03d c736 b53d aa2c 95bb 4a14 c3bd

decoder.1.running_var f4 [16]
0.089147605 0.08865102 0.09729419 0.051458407 0.07803881 0.04481218 0.06707757 0.059238896
0.12792405 0.060265742 0.14288422 0.09147922 0.08006039 0.052847173 0.07478997 0.057340313
00000000: 0593 b63d aa8e b53d 2d42 c73d 0dc6 523d
00000010: d0d2 9f3d fa8c 373d f75f 893d 7ca4 723d
00000020: 86fe 023e 36d9 763d 3e50 123e 7559 bb3d
00000030: b4f6 a33d 4776 583d 7c2b 993d addd 6a3d

decoder.3.weight f4 [16, 32, 3, 3]
-0.009744321 0.020239556 0.022687357 0.005663582 0.031783372 0.057909094 -0.008900662 0.06092155
-0.011444998 -0.0014725944 -0.034062784 0.040847257 -0.06898584 0.038889013 0.047296736 -0.0070824553
0.054776944 0.031407956 0.036614325 -0.09533432 -0.032462113 -0.026102457 -0.014398607 -0.10077756
-0.013839303 -0.07171864 -0.050884567 0.006303408 0.039203946 -0.13990778 0.072500184 0.10347767
-0.089720234 0.0062456564 -0.23208909 0.07797652 -0.015907407 -0.09635362 3.7453763e-05 -0.036462553
0.06801328 0.09140888 0.05518626 0.036822885 0.06491974 0.11294341 0.013438727 -0.043956704
-0.007122669 0.021376375 -0.0041140825 0.073928505 4.3030563e-05 0.02832452 0.0029931157 -0.07147489
0.066885285 -0.06289898 0.061243374 -0.030309988 -0.022086103 -0.028718641 0.071869455 0.045703314
0.0092378445 0.07752136 0.13719521 -0.029502492 -0.019777166 0.01971194 -0.043992903 -0.092261314
-0.045111597 -0.05414546 0.011034104 -0.049467534 -0.0032352093 -0.0010701718 -0.06476254 0.009218628
0.055655856 -0.051833354 -0.09137287 -0.010308192 -0.002348209 0.031809058 0.022396939 -0.086288996
0.027146371 -0.025544468 0.0018715679 -0.032099526 -0.0078878775 -0.05765241 0.0012678839 0.011791918
-0.05746736 -0.15106462 -0.14665197 -0.03663407 -0.0029062517 0.079696596 0.02072294 -0.010144676
0.05700905 0.016030142 -0.012055601 0.09908398 0.058581438 0.019447705 0.00036704514 0.006580855
0.0938661 0.08196324 -0.045509744 0.010238459 0.11610295 0.05807894 0.011811338 0.02198421
0.005471603 0.018457435 0.04233235 -0.05442165 0.043999124 -0.030963058 -0.00924078 -0.031972736
-0.058835894 0.0432666 0.0616585 -0.06648603 -0.08597318 -0.1658812 -0.02066422 -0.112383164
-0.057913125 0.029485496 -0.017411292 0.06581765 0.048360292 -0.08455066 -0.0020325661 0.112932995
0.06438225 0.015041922 0.061407182 -0.12904525 -0.10102523 -0.05767232 0.072538614 0.05274765
-0.0769981 -0.13020907 0.013881532 0.020569483 0.0058063073 0.059559934 0.032517593 -0.06344952
0.07883384 0.0799454 0.06004884 -0.021082502 0.068096474 0.058476925 -0.049330562 -0.03358287
0.08546527 -0.020385569 -0.0609222 -0.15711543 0.05132517 -0.016542984 0.009163428 -0.043959253
-0.12304043 -0.10535057 0.024564078 0.037046548 0.07864796 -0.016713409 0.01443425 -0.029734239
0.07021223 0.0151376305 -0.009226073 -0.05061552 -0.024556162 0.0024202403 -0.035853893 -7.0841577e-07
0.11405806 0.0054157637 0.014876739 -0.07644498 0.07257805 0.008903418 0.017382154 -0.13830553
0.11097404 0.110029176 0.0058002505 -0.00035497657 -0.05349028 -0.06704012 0.009022879 -0.02409514
-0.020886505 0.017963074 -0.03743519 -0.040687043 0.08156738 0.02091579 -0.05443069 0.08449254
-0.04102923 -0.051948458 -0.10950919 -0.08955933 0.05486398 0.01796378 0.011969559 -0.03431742
0.004999234 0.09777707 0.016646404 -0.04961512 0.054478183 -0.072757624 -0.049820736 0.07142464
-0.007343183 -0.043830488 0.068571486 0.014283901 -0.17636992 -0.07144804 0.080160886 0.054426074
0.04859005 0.05409523 -0.20464183 -0.038785417 0.012192492 -0.007683882 -0.04212676 -0.09434901
-0.043641422 -0.042481888 0.014861881 -0.050684366 0.028600723 -0.05149167 0.040677406 0.026895732
00000000: a5a6 1fbc 6dcd a53c d6da b93c 9295 b93b
00000010: 482f 023d 1632 6d3d 15d4 11bc e088 793d
00000020: cd83 3bbc 1204 c1ba 6b85 0bbd 744f 273d
00000030: 7348 8dbd 164a 1f3d 39ba 413d f113 e8bb
00000040: ca5d 603d a1a5 003d e7f8 153d a43e c3bd
00000050: fef6 04bd d2d4 d5bc 23e8 6bbc 7764 cebd
00000060: 3ebe 62bc 39e1 92bd 566c 50bd d28c ce3b
00000070: 5194 203d fc43 0fbe fa7a 943d 1aec d33d
00000080: 3ebf b7bd 5da8 cc3b c3a8 6dbe 27b2 9f3d
00000090: 4050 82bc 0c55 c5bd ac17 1d38 c259 15bd
000000a0: 8c4a 8b3d 9434 bb3d fd0a 623d 98d3 163d
000000b0: a4f4 843d e04e e73d 1b2e 5c3c f20b 34bd
000000c0: 4765 e9bb 821d af3c 6dcf 86bb d467 973d
000000d0: b77b 3438 d308 e83c 2628 443b 6d61 92bd
000000e0: 27fb 883d 2ed1 80bd 55da 7a3d a74c f8bc
000000f0: eaed b4bc 5b43 ebbc 4b30 933d 6633 3b3d
00000100: 545a 173c 85c3 9e3d e77c 0c3e 36af f1bc
00000110: b903 a2bc ef7a a13c e731 34bd 80f3 bcbd
00000120: f0c6 38bd a1c7 5dbd 63c8 343c 789e 4abd
00000130: ce05 54bb 0245 8cba 39a2 84bd ba09 173c
00000140: 65f7 633d 364f 54bd b321 bbbd b1e3 28bc
00000150: 69e4 19bb 374a 023d c979 b73c 49b8 b0bd
00000160: 1162 de3c a242 d1bc 664f f53a cb7a 03bd
00000170: 283c 01bc ef24 6cbd 202f a63a e432 413c
00000180: e562 6bbd afb0 1abe ef2b 16be 9b0d 16bd
00000190: d076 3ebb f837 a33d 28c3 a93c db35 26bc
000001a0: 5282 693d a551 833c db84 45bc 8bec ca3d
000001b0: 17f3 6f3d cb50 9f3c f76f c039 37a4 d73b
000001c0: df3c c03d 58dc a73d 6d68 3abd 36bf 273c
000001d0: 62c7 ed3d 2fe4 6d3d 5884 413c 3b18 b43c
000001e0: 224b b33b 0c34 973c b064 2d3d 3ce9 5ebd
000001f0: 6d38 343d 3da6 fdbc a466 17bc d8f5 02bd
00000200: e8fd 70bd 5238 313d a08d 7c3d d429 88bd
00000210: b512 b0bd c3dc 29be 0348 a9bc 2529 e6bd
00000220: 5036 6dbd 918b f13c 20a2 8ebc 67cb 863d
00000230: 7115 463d e528 adbd cd34 05bb 6a49 e73d
00000240: d7da 833d 6572 763c 1986 7b3d 7024 04be
00000250: 51e6 cebd d039 6cbd 208f 943d eb0d 583d
00000260: 2eb1 9dbd 8755 05be 5d6f 633c 5581 a83c
00000270: d642 be3b 1ef5 733d 2b31 053d d2f1 81bd
00000280: a373 a13d 6aba a33d c6f5 753d 36b5 acbc
00000290: 2a76 8b3d 8085 6f3d d80e 4abd 318e 09bd
000002a0: 6a08 af3d a3ff a6bc 8f89 79bd dee2 20be
000002b0: 573a 523d 2785 87bc 3422 163c 9e0e 34bd
000002c0: 9ffc fbbd 0ac2 d7bd 9b3a c93c 1fbe 173d
000002d0: 2f12 a13d 8fea 88bc a27d 6c3c 3895 f3bc
000002e0: 6ecb 8f3d d303 783c f428 17bc 3852 4fbd
000002f0: 012a c9bc e59c 1e3b 88db 12bd f629 3eb5
00000300: 4697 e93d b876 b13b 91bd 733c 308f 9cbd
00000310: cda3 943d a4df 113c 0565 8e3c f79f 0dbe
00000320: 5c46 e33d fa56 e13d 0710 be3b 261c bab9
00000330: a018 5bbd 554c 89bd b3d4 133c 2c63 c5bc
00000340: 2d1a abbc 4c27 933c a455 19bd 75a7 26bd
00000350: cc0c a73d 9757 ab3c b7f2 5ebd 6d0a ad3d
00000360: 440e 28bd e8c7 54bd 5b46 e0bd e26a b7bd
00000370: 0db9 603d c728 933c f81b 443c 6c90 0cbd
00000380: 9dd0 a33b 583f c83d 0a5e 883c 3939 4bbd
00000390: 8424 5f3d f301 95bd d410 4cbd 1547 923d
000003a0: 159f f0bb 9987 33bd 356f 8c3d 0607 6a3c
000003b0: 519a 34be 5a53 92bd 642b a43d e0ed 5e3d
000003c0: 5c06 473d f692 5d3d a18d 51be 75dd 1ebd
000003d0: 05c3 473c 13c9 fbbb 1c8d 2cbd 0e3a c1bd
000003e0: 59c1 32bd 7d01 2ebd 3f7f 733c 699a 4fbd
000003f0: 104c ea3c eee8 52bd 5a9d 263d 7054 dc3c

decoder.3.bias f4 [32]
0.01298441 0.012559223 -0.053336214 -0.031362038 0.019159706 -0.012973575 0.012876683 0.011025004
0.018681923 -0.036963757 -0.03245931 0.03899574 -0.06019873 -0.034163155 0.014358682 -0.020720745
-0.032897398 -0.015445781 -0.022702321 -0.026840093 0.03420599 -0.03408825 -0.04463572 -0.02054917
0.008672104 -0.027278507 -0.016381374 -0.0073441016 -0.013892325 0.012391189 -0.028866045 -0.007276713
00000000: 90bc 543c 33c5 4d3c 1377 5abd 7b75 00bd
00000010: d1f4 9c3c 1e8f 54bc b9f8 523c 38a2 343c
00000020: d50a 993c 4f67 17bd 0ef4 04bd ffb9 1f3d
00000030: f292 76bd aaee 0bbd ad40 6b3c 8dbe a9bc
00000040: 6cbf 06bd 4d10 7dbc 38fa b9bc c1df dbbc
00000050: 951b 0c3d 1fa0 0bbd f2d3 36bd bc56 a8bc
00000060: 7115 0e3c 2d77 dfbc 3b32 86bc caa6 f0bb
00000070: a29c 63bc 6a04 4b3c 7c78 ecbc 7e71 eebb

decoder.4.weight f4 [32]
1.0701146 1.1472976 0.99671835 1.15627 1.0596637 0.94163746 1.1998451 1.0379789
1.0318238 1.1097507 1.1351266 1.1608572 1.075291 1.1997278 1.1373346 1.0954814
1.0450147 1.0992899 1.0180928 1.0648199 1.0018215 0.9854065 1.0209842 1.0332172
1.0460925 1.0702045 1.0268852 1.0511869 1.1375444 0.9782113 1.0944866 1.0104324
00000000: 84f9 883f a6da 923f ef28 7f3f a800 943f
00000010: 0fa3 873f 270f 713f 8694 993f 7edc 843f
00000020: cd12 843f 500c 8e3f d44b 913f f896 943f
00000030: 23a3 893f ae90 993f 2e94 913f bc38 8c3f
00000040: 0bc3 853f 88b5 8c3f dd50 823f 054c 883f
00000050: b03b 803f 9a43 7c3f 9caf 823f 7640 843f
00000060: 5ce6 853f 76fc 883f f970 833f 4b8d 863f
00000070: 0e9b 913f 0e6c 7a3f 2318 8c3f d955 813f

decoder.4.bias f4 [32]
-0.01340334 -0.034390066 -0.08094782 -0.16666648 0.0027336753 -0.08853949 -0.052379053 -0.05089427
-0.07028806 -0.04990392 -0.14850096 -0.005942991 -0.016528677 -0.008572292 -0.120564125 -0.054794606
-0.03510952 0.020717647 -0.07238434 -0.08745744 -0.0041390713 -0.08125081 -0.054752618 -0.03844029
-0.011292916 -0.086075716 0.021195108 -0.107325554 -0.0111216605 -0.06441421 -0.14982975 -0.063488275
00000000: af99 5bbc 99dc 0cbd f8c7 a5bd 9eaa 2abe
00000010: 7627 333b 3154 b5bd 6b8b 56bd 8376 50bd
00000020: 30f3 8fbd 0e68 4cbd a310 18be 6cbd c2bb
00000030: 2667 87bc cc72 0cbc 53ea f6bd 4f70 60bd
00000040: 00cf 0fbd 0eb8 a93c 3e3e 94bd e31c b3bd
00000050: 0ca1 87bb d366 a6bd 4844 60bd 9173 1dbd
00000060: ec05 39bc 7748 b0bd 5da1 ad3c 80cd dbbd
00000070: a037 36bc 99eb 83bd f86c 19be 2406 82bd

decoder.4.running_mean f4 [32]
0.15401536 0.06666316 -0.14199963 -0.016009403 0.063388675 0.067682706 0.008288878 -0.051410995
0.108075075 0.0009748511 -0.081061624 0.007566813 0.05304909 -0.078550875 -0.02436375 -0.030233862
-0.052301068 -0.083103254 0.06284444 -0.21085548 -0.12446542 0.1371408 -0.11536038 0.015512261
-0.14076506 -0.18012434 -0.1633161 -0.084170125 -0.09521494 -0.04457648 0.12662277 0.08248892
00000000: 34b6 1d3e b286 883d 5a68 11be 2726 83bc
00000010: ecd1 813d 3b9d 8a3d 13ce 073c 5694 52bd
00000020: 7756 dd3d 268d 7f3a a303 a6bd 07f3 f73b
00000030: 014a 593d 48df a0bd 7d96 c7bc 01ad f7bc
00000040: a539 56bd 0a32 aabd 96b4 803d 80ea 57be
00000050: bae7 febd a36e 0c3e 1042 ecbd 2327 7e3c
00000060: b724 10be 8472 38be 563c 27be 6361 acbd
00000070: 0d00 c3bd d495 36bd 66a9 013e f3ef a83d

decoder.4.running_var f4 [32]
0.06364207 0.052209027 0.051955555 0.042489175 0.06921383 0.032144804 0.046980303 0.04695729
0.041939937 0.05286491 0.045481738 0.050812673 0.040879685 0.056013804 0.045594547 0.03779717
0.053149648 0.057486784 0.05359734 0.038457368 0.06253596 0.034477957 0.035154674 0.046300918
0.12793347 0.044219203 0.12423 0.07292566 0.05715248 0.0582004 0.04626934 0.061777357
00000000: c656 823d 22d9 553d 59cf 543d 2109 2e3d
00000010: fbbf 8d3d 45aa 033d 6b6e 403d 4a56 403d
00000020: 36c9 2b3d e088 583d 0f4b 3a3d f320 503d
00000030: 7571 273d bb6e 653d 59c1 3a3d 35d1 1a3d
00000040: 72b3 593d 4377 6b3d e288 5b3d 7985 1d3d
00000050: da12 803d c238 0d3d 59fe 0f3d 08a6 3d3d
00000060: fe00 033e 321f 353d 4c6c fe3d 0c5a 953d
00000070: b818 6a3d 8b63 6e3d eb84 3d3d 410a 7d3d
